Active Learning/fcSiteA2019.pth (torch, 13351 bytes, 2 tensors)

module.fco.weight f4 [3, 1024]
000000 73 63 ad bc ce 28 e6 bd 69 c3 75 3c 60 ad 84 3d
       -0.021165585 -0.112382516 0.015000203 0.06478381
000010 1f 3c 60 3d 3c bc ae b9 78 98 e3 bd bf 20 b4 bd
       0.054744836 -0.00033328112 -0.111130655 -0.08795308
000020 87 7b c9 3d c9 64 e5 bd 2d 30 a2 bd ee 1c a2 3c
       0.09838014 -0.11200864 -0.07919345 0.019789185
000030 71 c7 d3 bd 2b 42 c8 3c 3e 37 8d bd c7 6e d0 3b
       -0.10340775 0.024445614 -0.06895302 0.006360862
000040 7a bd b1 3c 4c 45 81 bd c3 4f 43 3d 2e c1 81 bd
       0.021696795 -0.063120455 0.04768349 -0.06335674
000050 3e ac d7 bd 66 42 dd bb 34 1b 91 bd 3f c1 80 3d
       -0.105308995 -0.0067523 -0.07085267 0.06286859
000060 52 2b 65 3d 01 83 64 3d cd 27 46 3b d3 12 d2 bd
       0.055949517 0.055788998 0.0030236125 -0.10257497
000070 ac 51 b9 3c f7 6c 53 3d cc 57 43 3d 82 a7 f2 3c
       0.022621952 0.05161759 0.04769115 0.02962089
000080 5f 3a 06 bd a5 b7 7e bd 80 3e 99 bd 66 cb fe 3c
       -0.03277051 -0.062186856 -0.07482624 0.031102847
000090 1e 1a 8d 3d 1a c1 c6 bb 33 af 20 be 15 ad f9 bd
       0.06889747 -0.0060655 -0.15691833 -0.12191216
0000a0 88 a3 8b 3d 36 a3 2f bd 90 60 2b 3d f2 90 8f 3d
       0.068183005 -0.04288026 0.041840136 0.07010068
0000b0 18 cb 9d bd 1a bd 9f 3c 0d d6 54 3d 64 b0 8a bd
       -0.07704753 0.01949935 0.051961947 -0.06771925
0000c0 f3 4f fb bd c2 bf e0 bd 0f 36 c0 bc 37 a2 0a bc
       -0.122711085 -0.10974075 -0.023463277 -0.008461527
0000d0 80 91 82 3c d2 d3 77 3c ea bc a8 bd 56 6e 48 3d
       0.01593852 0.0151261855 -0.082391575 0.04893335
0000e0 e3 93 91 bc 3a c9 ac 3d b1 ea 9d 3d 96 d4 cc 3c
       -0.017770713 0.084368184 0.077107795 0.025003713
0000f0 6c fc 43 bd b0 d5 df bd b3 5e b2 3b db be 2e 3d
       -0.04784815 -0.109294295 0.005443418 0.042662483
000100 3b 37 4b 3d 69 a7 40 3d 9a 74 12 bd 3d 25 0c bd
       0.04961322 0.047034655 -0.03575573 -0.0342152
000110 f9 0b 5b bd 86 83 38 3d 60 f0 b9 bd 6e cd c9 bd
       -0.053478215 0.045047306 -0.09079051 -0.09853636
000120 6c be 41 3d 98 7a ee bc fe c9 85 bb d8 bd a4 3d
       0.04730074 -0.029111192 -0.0040829172 0.08044022
000130 55 fc 88 3d ba c3 6a 3d 6c e7 be 3b 12 3f 3f 3d
       0.066887535 0.057315566 0.0058259275 0.046691008
000140 fc b2 e4 bd c7 9f b4 bc e2 48 96 3a 5b 07 c4 3d
       -0.11166951 -0.022048844 0.0011465813 0.095717154
000150 b2 78 d8 3c 2f bd 53 3d 4a 8a 44 bd fd bd 13 bd
       0.02642474 0.05169409 -0.047983445 -0.03606986
000160 71 db 15 3d 54 78 b1 bd ad 19 99 bd d7 bf 93 bd
       0.03658623 -0.08665529 -0.074756004 -0.07214325
000170 b3 fe de bd 6b d2 8d bd ba fa 91 3c 6a 50 10 bd
       -0.10888424 -0.069249 0.017819751 -0.03523294
000180 20 5e 3e b8 33 3b 01 3d bc 34 c7 bd b5 71 5a bd
       -4.538719e-05 0.031550597 -0.09726855 -0.053331096
000190 55 ce 94 bd 6a 0a f5 bc 88 ff 50 bd 2b e5 87 bc
       -0.07265917 -0.029912192 -0.051024944 -0.016588768
0001a0 f6 86 0b be 85 22 7d bd a3 3e 33 3d d3 e0 5f bd
       -0.13625702 -0.0618005 0.043760907 -0.05465777
0001b0 38 8d cc bd 54 59 9d 3d fb 06 84 3d 9c 8b 72 3d
       -0.09987873 0.076830536 0.06446644 0.059215173
0001c0 ba 90 6a bd ff c0 fe 3c c3 d9 8f bc 2e 4c 6a bd
       -0.05726693 0.031097887 -0.017559892 -0.057201557
0001d0 e9 3b 98 3d 5e 3e 8c 3d 3d 9f 47 3d d1 81 98 3d
       0.07433302 0.06847833 0.048735846 0.074466355
0001e0 e0 91 8b 3d 93 c6 a8 bd b1 a4 67 bd 5d 2d 7f bd
       0.06814933 -0.08241 -0.056553546 -0.06229912
0001f0 60 81 14 3d c0 fa c9 bd cc cd 40 bd c7 8c 64 3d
       0.036256194 -0.0986228 -0.047071263 0.05579832
000200 92 c0 0a be 54 ff 65 3d d3 2f 28 3d 8f df 11 bc
       -0.13550022 0.056151703 0.041061234 -0.008903398
000210 51 5b f2 bc 7d e8 0d 3a 9f af 18 bd 0a 3e a6 bc
       -0.029584559 0.00054133666 -0.03727686 -0.020293254
000220 9b 10 ce bd 29 4a 9c bd f5 cf a8 3d 9e 15 f0 bc
       -0.10061761 -0.076313324 0.0824279 -0.029307183
000230 81 ba 33 3d 4d 0a 8e 3d 72 6a c5 3c bb c4 0f 3d
       0.043879036 0.069355585 0.024098609 0.035099726
000240 a3 32 97 bb 70 85 09 3d 34 a6 79 3c 16 83 0a be
       -0.0046141907 0.03357452 0.01523738 -0.13526568
000250 a4 9f 9f 3d 9e 4e a0 bd ca e3 c1 3c aa b7 05 bd
       0.07794121 -0.07827495 0.023668189 -0.03264586
000260 cb f4 93 3d 35 2e 17 3d ab ea 64 bd 4e c3 ad bd
       0.07224425 0.0369093 -0.05588786 -0.08484517
000270 79 32 ca bd c6 bc 75 bd 30 81 54 bd 7a 1a 32 bd
       -0.09872908 -0.05999448 -0.051881015 -0.04348228
000280 e9 66 d1 bc 1f c8 c6 bd a1 5b 04 3d ec 0e d7 3c
       -0.025561767 -0.09706139 0.032313947 0.026252232
000290 c6 e1 07 be 3d 4c 59 3d a9 97 99 bd c1 e6 bc bd
       -0.1326972 0.053051222 -0.0749963 -0.092237
0002a0 4d 69 e6 bd e4 d7 9a 3c 2f 82 ed 3c 0f f0 5e 3d
       -0.11250553 0.018901773 0.02899274 0.054428156
0002b0 8a a4 9d bd 96 03 4d 3d 3c 08 6b 3d 84 2e 4f 3d
       -0.07697399 0.050052248 0.0573809 0.05058147
0002c0 19 89 4d bd 1d 0e 3f 3d 86 4b ae 3d 50 03 81 bd
       -0.050179575 0.04664432 0.08510499 -0.0629946
0002d0 27 e6 70 3a 44 2b d3 3d 79 14 07 3d 74 ba a1 bd
       0.0009189569 0.10310987 0.03297851 -0.07896891
0002e0 ac 1f 39 bd fb 51 9c bd 4e 6d 44 bd 83 77 a8 bd
       -0.04519622 -0.07632824 -0.047955804 -0.0822592
0002f0 f9 01 92 3c 34 82 38 3d 2f f4 0d be d2 b0 ef bd
       0.017823206 0.045046046 -0.1386268 -0.11703648
000300 bd 19 9c 3d 65 05 53 3d c2 51 65 bd ae 6a d6 bb
       0.07622097 0.051518817 -0.055986173 -0.006543479
000310 f3 85 a1 bd db f1 09 be 0e 75 10 be 50 2d 86 3d
       -0.07886877 -0.13471167 -0.14107153 0.065516114
000320 1a c6 98 3d 85 a2 0e bd a2 92 a5 3c 09 a3 75 3c
       0.0745966 -0.03482296 0.020211522 0.014992484
000330 c3 84 52 3d 24 0d 7a bd e9 25 4c 3b e8 a3 7d bd
       0.051396143 -0.061047688 0.0031150526 -0.06192389
000340 bf 2a b0 bd c3 11 02 bd 60 f5 d2 bd 17 bc 49 3d
       -0.08601903 -0.03175522 -0.10300708 0.049251642
000350 e1 02 a9 bd d1 0b 8d 3d 24 f3 ea 3c 83 7e 89 3d
       -0.08252502 0.068870194 0.028680392 0.06713583
000360 20 8e 84 bd 58 2e d1 bd fb 1e 7a bd 07 c9 a0 3c
       -0.06472421 -0.102139175 -0.0610647 0.019627107
000370 7f b0 8f 3d bf 9c 1e bd e4 eb b5 3c 99 93 53 3d
       0.07016086 -0.038723703 0.022207208 0.051654432
000380 f4 68 a1 bd 49 ce f8 bd 09 14 77 3d fb c9 ba bd
       -0.07881346 -0.12148721 0.06032184 -0.09120556
000390 38 39 6f 3b 33 93 b1 bd c0 0b aa bd 0b 36 b9 bd
       0.003650261 -0.08670654 -0.083030224 -0.09043511
0003a0 1a fd 67 bd 7b dc a4 bc dc 7a c8 bd 1e ed 20 3d
       -0.05663786 -0.020124665 -0.097890586 0.039288633
0003b0 40 4e c9 bd 67 ae 3d 3d af a6 d9 bd 3f 0c 1f 3d
       -0.09829378 0.0463089 -0.106274955 0.03883004
0003c0 69 09 96 3d b4 1b b2 3d 5b 3d 78 bd e9 4a 04 3d
       0.073260136 0.0869669 -0.060605388 0.032298002
0003d0 2e f1 53 bd 78 b8 19 ba d1 f2 1b bd 4b 3a 2f 3d
       -0.05174368 -0.0005863975 -0.038073365 0.042780202
0003e0 20 7d ac 3d b6 34 87 bd 56 69 d0 bd f3 e4 b2 3c
       0.08422303 -0.06601851 -0.10176341 0.021837687
0003f0 f8 8e f0 bc 75 9b 58 bd 2e de 37 3d 6a 2e c8 3d
       -0.029365048 -0.05288263 0.04488962 0.09774478

module.fco.bias f4 [3]
000000 01 2f e3 3b e4 b5 fd bc 8c c9 21 bc
       0.0069330935 -0.030970521 -0.009874713
